model/keypoint_classifier/keypoint_classifier.tflite (tflite, 4608 bytes, 6 tensors)

sequential/dense_2/MatMul f4 [4, 10]
0.02988621 0.8269918 -0.03806956 -0.40685338 0.07707525 0.17870617 0.6051735 -0.799581
0.27100685 -0.67361444 -0.47724208 0.071969435 0.6149458 0.2150141 0.67392856 -0.9391407
-0.24153863 0.024639195 -0.06687216 -0.18979813 -0.61747557 -0.4920456 -0.55757517 -0.58086133
-0.21601893 0.607392 0.11517049 0.21078455 -0.57369673 -0.13344224 -0.112525485 -0.0594566
-0.17049679 0.213321 -0.5717092 -0.60463184 -0.64425266 0.40453565 0.77847755 -0.23414227
00000000: edd3 f43c bcb5 533f d4ee 1bbd 164f d0be
00000010: a1d9 9d3d c0fe 363e a7ec 1a3f 57b1 4cbf
00000020: 69c1 8a3e ff71 2cbf 1359 f4be b664 933d
00000030: 176d 1d3f a82c 5c3e 9586 2c3f 866b 70bf
00000040: e755 77be 23d8 c93c 45f4 88bd 715a 42be
00000050: e112 1ebf 67ed fbbe 3fbd 0ebf 54b3 14bf
00000060: 1134 5dbe 0b7e 1b3f 82de eb3d e8d7 573e
00000070: cadd 12bf 15a5 08be c373 e6bd c488 73bd
00000080: b696 2ebe d270 5a3e 895b 12bf 27c9 1abf
00000090: beed 24bf 4c1f cf3e 4e4a 473f fec2 6fbe

sequential/dense_1/MatMul f4 [10, 20]
0.14175372 -0.102423094 0.02950544 0.13464187 0.31542715 -0.07209818 0.3886744 -0.09503834
0.12865213 -0.2671377 0.07626949 -0.28088 -0.4122995 -0.31363234 -0.20470917 -0.4515048
0.49331772 -0.36186355 -0.26300094 -0.12790157 0.13266777 0.12838405 0.1797881 -0.22741255
-0.009194751 -0.4177483 -0.10802751 -0.54114103 -0.588281 -0.10622014 0.20738491 0.5104202
0.14029668 0.03232278 -0.37641445 0.112459436 -0.41844812 -0.34657326 0.40718934 0.17709953
-0.24621719 0.23915216 -0.39183885 0.56603605 0.47395444 0.23993933 -0.31015906 0.0039305636
-0.24656151 0.22398554 -0.23694699 0.29527634 0.4300517 -0.1558639 0.2802755 -0.13815913
0.09409919 -0.20903373 -0.27424043 0.059182525 0.030913737 -0.3488867 0.5320291 0.21184194
0.42315614 0.38308516 0.06820065 0.14885938 -0.42584488 0.37197354 0.334896 0.12409558
0.4536197 -0.10113738 0.37421897 -0.33384734 0.3871116 0.01422951 0.4997442 0.23220298
0.052871056 -0.57608104 -0.43222257 0.45203224 0.24445237 -0.071832635 -0.25318184 -0.26417786
0.23942277 0.14267685 -0.05416913 0.28600404 0.33494 0.41244546 0.26436138 -0.14365649
0.33213645 -0.4243675 0.45417663 0.27651355 -0.07648817 0.4368748 -0.09387316 -0.34856474
-0.11122684 -0.3424586 -0.049802735 0.4268777 0.25138527 -0.01985761 0.59658766 -0.17678432
-0.15969078 -0.06687113 -0.21819915 0.55328745 -0.30295426 0.5493173 0.086144276 0.6864281
-0.07662926 0.50015354 -0.3506022 0.22470543 -0.121892765 -0.26717252 -0.33008355 -0.6372479
0.18612692 -0.032856427 0.5026031 0.2982832 -0.03262219 0.07547297 0.0065823044 -0.08599466
-0.1803473 -0.13071063 0.3760447 0.21963938 0.059126873 -0.061503917 0.41644502 0.014472859
0.41357836 0.21706396 0.38116798 0.16937809 0.42517895 -0.15518881 0.10022646 -0.13884914
0.6793323 -0.27366248 0.7379916 -0.22509792 0.4506101 0.13004778 0.15432544 0.17701623
-0.22480771 0.4088909 0.42459142 -0.32703957 0.16991752 0.53924716 0.63881326 -0.031811375
-0.31236506 -0.24195756 0.50196797 -0.3019007 -0.5167445 0.06546868 0.13188772 0.08275797
0.50342536 -0.43662447 0.28981414 -0.17073774 0.040995907 0.33176053 0.033596355 0.7022562
0.22071202 0.031235041 -0.0084096 0.439798 0.38586026 -0.22234395 -0.3184079 -0.12900797
0.0030210144 0.25007176 0.21283719 0.014239313 0.29920426 0.55622166 0.35110396 0.2965854
00000000: e327 113e 33c3 d1bd 64b5 f13c 8fdf 093e
00000010: ab7f a13e 36a8 93bd 5500 c73e 76a3 c2bd
00000020: 62bd 033e 46c6 88be 2e33 9c3d 81cf 8fbe
00000030: ec18 d3be 6b94 a0be 489f 51be a32b e7be
00000040: 2494 fc3e 2e46 b9be 0fa8 86be a1f8 02be
00000050: 0fda 073e 1c77 033e 5f1a 383e d6de 68be
00000060: 95a5 16bc 1be3 d5be 873d ddbd 3888 0abf
00000070: 9599 16bf f289 d9bd b65c 543e e6aa 023f
00000080: efa9 0f3e e464 043d 65b9 c0be 2251 e63d
00000090: d53e d6be 0d72 b1be 1f7b d03e 9459 353e
000000a0: 5c20 7cbe 4ee4 743e 1a9f c8be bde7 103f
000000b0: 28aa f23e a8b2 753e 2bcd 9ebe f5cb 803b
000000c0: 9f7a 7cbe 775c 653e 3ba2 72be 762e 973e
000000d0: bd2f dc3e c99a 1fbe 4580 8f3e 9679 0dbe
000000e0: 13b7 c03d f00c 56be 3e69 8cbe 6069 723d
000000f0: ce3e fd3c 47a1 b2be 0f33 083f 18ed 583e
00000100: eca7 d83e bd23 c43e c8ac 8b3d 986e 183e
00000110: 5708 dabe 5173 be3e 7d77 ab3e d325 fe3d
00000120: d740 e83e 1d21 cfbd a199 bf3e 0aee aabe
00000130: 7e33 c63e e422 693c 79de ff3e 9ec6 6d3e
00000140: 528f 583d 0c7a 13bf 474c ddbe c570 e73e
00000150: b951 7a3e fd1c 93bd 0da1 81be 5242 87be
00000160: 3e2b 753e e119 123e 73e0 5dbd 1f6f 923e
00000170: 417d ab3e 0d2c d33e 605a 873e b01a 13be
00000180: ca0d aa3e b246 d9be d789 e83e 2f93 8d3e
00000190: d4a5 9cbd 0eae df3e 9240 c0bd 1477 b2be
000001a0: e6ca e3bd bc56 afbe f4fd 4bbd b78f da3e
000001b0: 92b5 803e 6dac a2bc f8b9 183f f306 35be
000001c0: fb85 23be bbf3 88bd 996f 5fbe 3fa4 0d3f
000001d0: d21c 9bbe 0fa0 0c3f 696c b03d c1b9 2f3f
000001e0: cdef 9cbd 100a 003f 2282 b3be 2e19 663e
000001f0: eaa2 f9bd d6ca 88be b600 a9be ae22 23bf
00000200: 0e98 3e3e 7694 06bd 99aa 003f 93b8 983e
00000210: d89e 05bd 9391 9a3d 5fb0 d73b f81d b0bd
00000220: f6ac 38be 02d9 05be ee88 c03e 25e9 603e
00000230: 052f 723d 88eb 7bbd 4838 d53e 921f 6d3c
00000240: 8bc0 d33e 0446 5e3e 7328 c33e 7371 2d3e
00000250: 0eb1 d93e d1e9 1ebe 8843 cd3d 782e 0ebe
00000260: b9e8 2d3f 7d1d 8cbe 04ed 3c3f 1280 66be
00000270: 5eb6 e63e 3f2b 053e 7d07 1e3e be43 353e
00000280: fe33 66be 265a d13e 0c64 d93e bb71 a7be
00000290: dcfe 2d3e 1a0c 0a3f 4489 233f a54c 02bd
000002a0: 50ee 9fbe b9c3 77be f980 003f bb92 9abe
000002b0: 5e49 04bf 7114 863d 930d 073e 037d a93d
000002c0: 7ce0 003f 3e8d dfbe 8562 943e e0d5 2ebe
000002d0: 53eb 273d 84dc a93e 559c 093d 10c7 333f
000002e0: 5502 623e a1e0 ff3c 6bc8 09bc 342d e13e
000002f0: 7a8f c53e 22ae 63be 5c06 a3be aa1a 04be
00000300: 36fc 453b 6809 803e fef1 593e 024c 693c
00000310: 4d31 993e 8b64 0e3f e6c3 b33e 0bda 973e

sequential/dense/BiasAdd/ReadVariableOp f4 [20]
-0.087546535 0.1262323 0.0034132479 0.09354756 -0.032535285 0.005101387 -0.075953856 -0.04729242
-0.06808209 -0.040047932 0.09450774 0.06709583 0.06451125 0.087467566 -0.004550199 0.070075884
-0.006005386 -0.011212848 0.12652335 0.07720289
00000000: 994b b3bd 0a43 013e ccb0 5f3b dd95 bf3d
00000010: b843 05bd 8929 a73b b28d 9bbd b2b5 41bd
00000020: 9f6e 8bbd 4d09 24bd 468d c13d 8a69 893d
00000030: 791e 843d 3222 b33d d619 95bb f283 8f3d
00000040: d4c8 c4bb 18b6 37bc 568f 013e 8c1c 9e3d

sequential/dense_2/BiasAdd/ReadVariableOp f4 [4]
-0.07327137 -0.10220579 0.1289076 0.02798762
00000000: 4d0f 96bd 4551 d1bd 5b00 043e 4b46 e53c

sequential/dense_1/BiasAdd/ReadVariableOp f4 [10]
-0.05804463 0.32794726 0.08879841 0.019981654 0.07564574 0.2266975 0.19322085 0.123382576
0.14118265 -0.013552398
00000000: 35c0 6dbd b4e8 a73e f1db b53d 91b0 a33c
00000010: 27ec 9a3d 6423 683e b0db 453e 01b0 fc3d
00000020: 2f92 103e e10a 5ebc

sequential/dense/MatMul i1 [20, 66] scale=0.0045181043 zero_point=0
0.24849573 0.16265175 -0.14006123 0.0 -0.040662937 0.18072417 0.040662937 -0.1039164
0.045181043 0.018072417 0.03162673 -0.049699146 0.24397764 0.13102502 0.11747071 0.16716985
-0.045181043 0.2123509 -0.022590522 -0.16716985 -0.12198882 0.05421725 0.018072417 -0.06777156
0.0045181043 -0.112952605 0.1039164 -0.12198882 -0.1084345 0.112952605 -0.14006123 0.06325346
-0.094880186 0.14006123 -0.09036209 -0.049699146 -0.013554312 0.05421725 -0.06325346 0.25753194
0.08584398 -0.2078328 0.13102502 -0.09036209 0.34337592 0.08584398 0.058735356 0.076807775
0.16265175 0.15813366 0.018072417 -0.036144834 -0.14457934 0.022590522 -0.1084345 0.018072417
-0.17620607 0.094880186 -0.3162673 -0.13554312 -0.040662937 0.12198882 0.03162673 -0.018072417
0.076807775 -0.27560437 0.25753194 0.15361555 -0.045181043 0.16716985 0.23945953 -0.15813366
0.37500265 -0.12198882 0.0090362085 -0.0090362085 0.0 -0.14006123 0.13102502 0.3117492
0.48343715 -0.34337592 0.013554312 -0.022590522 0.24397764 -0.2078328 0.12650692 0.2078328
0.17168796 0.25753194 0.07228967 -0.14457934 0.13102502 0.022590522 -0.2213871 0.09939829
-0.23945953 -0.0045181043 -0.15813366 0.17620607 -0.27560437 0.0045181043 -0.19427848 -0.12650692
-0.18976037 0.20331469 -0.38855696 -0.14909744 -0.2213871 0.11747071 -0.36596644 -0.049699146
0.57379925 -0.0090362085 0.38403887 -0.09036209 0.23042332 -0.036144834 0.1084345 -0.08584398
0.058735356 -0.07228967 0.13102502 -0.14909744 0.16265175 0.03162673 0.022590522 0.112952605
-0.058735356 -0.1084345 -0.41114748 -0.022590522 -0.216869 0.022590522 -0.036144834 0.0045181043
0.16265175 -0.19427848 0.3207854 -0.14457934 -0.23042332 0.112952605 -0.3343397 -0.33885783
-0.38855696 0.06777156 0.36596644 -0.018072417 -0.26205003 -0.12198882 0.18072417 0.13554312
-0.2213871 0.23042332 -0.027108625 -0.19879659 -0.03162673 -0.018072417 -0.2213871 -0.09036209
0.09036209 -0.13554312 0.05421725 -0.28012246 -0.26656815 0.0 -0.018072417 -0.46536472
-0.1084345 0.24849573 -0.03162673 -0.15813366 0.13102502 0.25753194 -0.28012246 -0.38403887
-0.24397764 -0.058735356 -0.036144834 0.12198882 0.06325346 -0.09036209 0.05421725 -0.14006123
-0.11747071 0.0090362085 -0.027108625 -0.19879659 -0.036144834 -0.027108625 0.3343397 0.09036209
-0.12198882 -0.17620607 0.35241213 0.112952605 0.094880186 -0.13102502 0.049699146 -0.07228967
-0.14006123 0.3162673 -0.26656815 -0.0045181043 0.036144834 0.17168796 0.040662937 0.28915867
0.17168796 0.25753194 -0.03162673 0.14909744 -0.25301385 0.076807775 0.027108625 0.14006123
-0.24397764 -0.18524228 -0.040662937 0.036144834 -0.2123509 0.049699146 -0.16265175 -0.13102502
-0.16265175 -0.09036209 0.03162673 0.16716985 0.094880186 0.049699146 0.27560437 -0.058735356
0.34337592 0.0090362085 0.25753194 0.2981949 0.38403887 0.05421725 0.045181043 0.058735356
0.347894 0.27560437 0.13554312 0.23494142 -0.5060277 -0.0045181043 -0.20331469 -0.03162673
-0.19427848 0.09036209 0.12650692 -0.17620607 -0.09036209 -0.076807775 0.08584398 0.14457934
00000000: 3724 e100 f728 09e9 0a04 07f5 361d 1a25
00000010: f62f fbdb e50c 04f1 01e7 17e5 e819 e10e
00000020: eb1f ecf5 fd0c f239 13d2 1dec 4c13 0d11
00000030: 2423 04f8 e005 e804 d915 bae2 f71b 07fc
00000040: 11c3 3922 f625 35dd 53e5 02fe 00e1 1d45
00000050: 6bb4 03fb 36d2 1c2e 2639 10e0 1d05 cf16
00000060: cbff dd27 c301 d5e4 d62d aadf cf1a aff5
00000070: 7ffe 55ec 33f8 18ed 0df0 1ddf 2407 0519
00000080: f3e8 a5fb d005 f801 24d5 47e0 cd19 b6b5
00000090: aa0f 51fc c6e5 281e cf33 fad4 f9fc cfec
000000a0: 14e2 0cc2 c500 fc99 e837 f9dd 1d39 c2ab
000000b0: caf3 f81b 0eec 0ce1 e602 fad4 f8fa 4a14
000000c0: e5d9 4e19 15e3 0bf0 e146 c5ff 0826 0940
000000d0: 2639 f921 c811 061f cad7 f708 d10b dce3
000000e0: dcec 0725 150b 3df3 4c02 3942 550c 0a0d
000000f0: 4d3d 1e34 90ff d3f9 d514 1cd9 ecef 1320
