model/multi_point_history_classifier/multi_point_history_classifier.tflite (tflite, 22800 bytes, 6 tensors)

sequential_3/dense_11/MatMul f4 [6, 10]
000000 b1 c4 5d bf 78 93 87 3e 7a d3 6b 3e e0 91 5e be
       -0.8662825 0.26479697 0.2302989 -0.21735334
000010 32 3b 4b be f8 e0 da bf 0e 7e 3f 3f 68 b5 cc 3e
       -0.198468 -1.7099905 0.7480172 0.39982152
000020 8e 24 28 3f 63 1d 7e 3f 23 b1 58 3f ab 1b 88 3d
       0.6568078 0.9926359 0.8464529 0.06645902
000030 57 41 aa bf 7d 81 ee 3b 45 9f 4d 3f 73 fa 0d bf
       -1.330119 0.00727862 0.8032115 -0.5546028
000040 09 6d 09 3f b7 25 3c 3f 47 f9 a3 bf 0b 5e a5 bd
       0.53682 0.7349505 -1.2810448 -0.08074578
000050 c3 58 87 bf 9d df 18 3f e2 87 e9 bc 5e 18 24 3f
       -1.0573963 0.59716207 -0.028507177 0.6409968
000060 85 87 56 3d 21 d0 6a 3e 5a 84 9f 3e 27 a2 ab 3c
       0.052375335 0.22930957 0.31155664 0.020951344
000070 e5 87 d8 be 55 58 ec 3d 4b 16 0e 3f 4c 78 4b 3f
       -0.4229118 0.115402855 0.55502766 0.79480433
000080 44 3f 27 3f a7 9b a5 bf 08 1f 85 bf 99 24 9a bf
       0.6533091 -1.2938126 -1.0400095 -1.2042419
000090 f3 81 43 bf 90 75 aa bf 8e 88 83 3f fc 62 a7 bf
       -0.7637016 -1.3317127 1.0276048 -1.3077083
0000a0 bb 3a 03 be 27 24 8e bf db 5e a2 be 2f 76 9d 3e
       -0.12815373 -1.1104783 -0.31712994 0.3075423
0000b0 ab 97 23 bf de 3e b3 3e f3 9f 13 bf bc 5d 7e 3f
       -0.639033 0.350089 -0.5766594 0.9936178
0000c0 be 4f b1 bd ea 66 d8 bd af 38 27 3f d6 5f 33 be
       -0.08657788 -0.10566504 0.6532087 -0.17517027
0000d0 9e 97 ea 3e 7f 6a a9 3e ae 78 c6 3e 42 b1 aa be
       0.458188 0.33089063 0.38763946 -0.33338362
0000e0 ac 8d 90 be b2 48 87 bf 9e 17 24 be 78 cf be be
       -0.28233087 -1.056906 -0.16024634 -0.3726766

sequential_3/dense_10/MatMul f4 [10, 24]
000000 8f e0 a7 3e 5d ad 44 bf ee 1b 6c bd 0b 43 0d 3f
       0.32788512 -0.7682703 -0.057643823 0.55180424
000010 d0 bb 53 be c9 6a 90 3e c8 6b b0 bd 74 df 63 bf
       -0.20677114 0.2820647 -0.08614308 -0.8901284
000020 bb fb 6d be 74 5c 04 bf dd 79 5b 3e 67 60 14 3f
       -0.23240559 -0.5170357 0.21433206 0.579596
000030 1c 9b 5f bf 32 60 38 3e 44 7a dc be 3e 0c a4 be
       -0.87346053 0.18005446 -0.4306203 -0.3204059
000040 b0 9d 22 3d 70 db 66 3f 78 03 60 bf 58 bd 67 3c
       0.039701164 0.90178585 -0.8750529 0.014144264
000050 d3 0c d9 3e 2c f6 ad 3e 15 34 68 bf 4f 22 13 bb
       0.42392597 0.33976877 -0.9070447 -0.002245087
000060 1c 6d d4 bd 0e d7 00 3e e2 d6 a8 3e 07 22 ae bc
       -0.103723735 0.12582037 0.32976443 -0.02125646
000070 69 04 ff be 71 37 ab be e2 31 11 3f de c1 c0 3d
       -0.49808052 -0.33440736 0.5671674 0.09411977
000080 61 ac 37 3f 57 5d b8 ba ea 70 59 3e df b7 da 3e
       0.71747404 -0.0014065903 0.2123448 0.42718408
000090 61 3f 3a bd fa 81 ce be 16 ab 62 bd 1e b3 06 bf
       -0.0454706 -0.4033354 -0.05533894 -0.5261706
0000a0 d7 a2 c1 3c 9b 06 27 3f 94 a7 17 be ba fd 3c 3e
       0.023637218 0.65244454 -0.1481002 0.18456164
0000b0 70 ce 9e be de 36 21 3f ee 4c b4 bd 3b af 0c 3f
       -0.31016874 0.62974346 -0.08803736 0.5495488
0000c0 da ad 1f 3d 1b 76 6c be 93 10 22 3e 5d e9 70 bf
       0.038984157 -0.23091929 0.15826635 -0.94106084
0000d0 cc 62 76 be 31 c6 41 3f 2b 23 01 3f 7b 96 09 bd
       -0.24061126 0.7569304 0.5044429 -0.033590775
0000e0 87 f8 ac 3e 05 c8 43 3f d4 e8 e3 3c ca fc 7c bb
       0.3378336 0.7647708 0.027820982 -0.0038602822
0000f0 09 2b 21 bf 79 6b 6a be 84 de 00 bf 98 f0 d1 be
       -0.6295629 -0.2289256 -0.5033953 -0.4100387
000100 f6 be 3b bf c2 93 66 be 2f c7 26 bf 50 ac 15 3e
       -0.7333826 -0.22517303 -0.6514768 0.14616513
000110 24 79 d9 3c 2c 31 56 3e 05 c4 1c bf c3 72 5d 3f
       0.026547022 0.20917195 -0.612366 0.8650324
000120 fd c3 6e 3f b4 67 a1 be 43 ce 9e be 2d 51 2d 3e
       0.93267804 -0.31524432 -0.3101674 0.16925497
000130 73 ee 11 bf 5e 27 09 3f 19 05 15 bf 1e 6d 91 3d
       -0.5700447 0.53575695 -0.58210903 0.071008906
000140 98 6f ca 3e 91 7a 58 3f 13 ec 86 3e 78 09 00 be
       0.39538264 0.8456202 0.26351985 -0.12503612
000150 f9 a3 38 be f9 ae 2f be 65 ae 69 3f 69 5b e8 bc
       -0.180313 -0.1715659 0.9128173 -0.0283639
000160 d1 d2 19 3f 84 04 14 bf 73 06 bf be 7a 70 1c 3f
       0.60087305 -0.5781939 -0.37309608 0.61109126
000170 dd 7b 45 be 13 4b 4b 3e 22 47 8b bd ca 0e 5f bf
       -0.19285531 0.19852857 -0.06800677 -0.8713194
000180 aa a3 e2 3e 31 58 a2 be fb da fa be 44 85 93 bc
       0.4426549 -0.3170791 -0.48995194 -0.018007882
000190 e1 f3 0c be 6a eb f9 be dd 62 b8 be 74 10 be be
       -0.13764907 -0.4881242 -0.36012927 -0.37121928
0001a0 f8 73 9a be a6 f9 29 3f 4e 43 57 3c 04 48 0d 3f
       -0.30166602 0.6639656 0.013138605 0.5518801
0001b0 2d ee 81 be 11 b2 7b 3d 82 99 35 be 15 54 cf be
       -0.25377026 0.061449114 -0.1773434 -0.40493837
0001c0 21 7d a4 3d 5f d8 ad 3e b8 f1 a8 be 62 08 90 3e
       0.08031679 0.3395414 -0.32996917 0.28131396
0001d0 59 93 41 3e 06 f6 b4 3e 4f 86 a4 be 9a 9f 0a bf
       0.18903865 0.3534395 -0.3213372 -0.5414978
0001e0 c7 46 c4 3e e2 09 08 bf f1 c0 0b bf 3c 4d 2c 3f
       0.3833525 -0.5314008 -0.5459128 0.6730535
0001f0 bd d9 64 be 6e 15 d6 bd 08 c5 06 bf e4 6b 2e bf
       -0.22348686 -0.10453306 -0.52644396 -0.6813338
000200 64 12 3b 3e f8 eb 64 3e c1 0a a9 3e a5 cb 99 be
       0.18268734 0.2235564 0.33016017 -0.3003818
000210 ba a2 2d bf 73 7c e5 be 6b b3 72 3f 8b 2e d5 3e
       -0.67826426 -0.4482151 0.9480502 0.41637072
000220 bc 54 6e 3e 16 1f 3c bf 7b 8d 40 bf c4 23 12 3f
       0.23274511 -0.73484933 -0.7521588 0.57085824
000230 73 96 55 be 51 e8 ba bd e9 91 41 bf b2 45 0c bf
       -0.20858173 -0.09126342 -0.75613266 -0.54793847
000240 56 f8 a0 3e 44 51 2e be f7 20 25 3f 69 65 05 bd
       0.31439465 -0.17023188 0.64503425 -0.032567415
000250 6a f7 df 3d 2b 75 11 bd aa c7 d5 3e a1 04 31 3e
       0.10935862 -0.03551213 0.41753894 0.17286922
000260 91 58 59 be a1 20 21 3f bc 9d 89 bf 3b 0e ba 3d
       -0.21225192 0.6294041 -1.0751262 0.090847455
000270 3b 2f 9d be cc c4 96 be 7f ca bf be e9 53 dc be
       -0.30700096 -0.2944702 -0.3745918 -0.43032768
000280 2a 98 34 bd 54 d4 10 3d 07 3c 40 3f 3a b0 3b bd
       -0.044090427 0.035358742 0.75091594 -0.04582236
000290 9c 6b f7 bd 83 87 9f 3e 91 b1 94 bd 1a 34 21 bc
       -0.12081072 0.31158075 -0.072604306 -0.009839082
0002a0 14 46 97 3e 25 9b 47 3e 05 ef 31 bf 8e 1d 74 3f
       0.29545653 0.19492777 -0.6950534 0.95357597
0002b0 34 92 3f be 55 d7 33 be d8 a8 69 bf 61 d4 14 3f
       -0.18708116 -0.17562611 -0.9127326 0.58136564
0002c0 26 d3 fc be fa 32 a2 be a6 d7 6e 3e ef 77 1a 3d
       -0.49379843 -0.31679517 0.23324451 0.037712034
0002d0 05 95 88 be 90 75 06 bf aa 80 49 3b be 52 92 3f
       -0.26676193 -0.52523136 0.0030746856 1.1431501
0002e0 15 b6 75 3f 38 9a 8c 3e d2 8d aa be 83 03 33 3f
       0.9598096 0.2746141 -0.33311325 0.69927233
0002f0 32 ed 9e 3f 85 6d 03 3d 88 c3 fc be 52 b4 22 bf
       1.2416136 0.032086868 -0.49367929 -0.63556397
000300 fb 5c 73 bd 78 69 b9 be da 0f 22 3f 79 53 4e bf
       -0.059414845 -0.3621328 0.6330544 -0.8059612
000310 f2 02 9e be 33 a7 d1 be cb bf 2b 3d 8a 3d 44 3d
       -0.30861622 -0.40947875 0.041930955 0.04791025
000320 b4 75 84 3e a1 c1 84 be d2 a8 8b 3c bf e2 73 3e
       0.2587105 -0.25928977 0.017048273 0.23816966
000330 1a 5f ba 3d 64 bf d8 be 17 cf 52 bf d5 bf 07 bd
       0.091001704 -0.4233352 -0.82347244 -0.03314193
000340 7c 83 6a bf e7 74 19 3e 1d c7 e8 3d 5b 51 a1 bf
       -0.9160688 0.14986001 0.11366103 -1.2602953
000350 9a 79 23 bf d6 d8 67 3e 3a 3d 35 3d 0d 8d 6a 3f
       -0.63857424 0.2264131 0.044247843 0.91621476
000360 81 71 07 3f 7a 12 21 3f e6 37 01 3e 55 8d 72 bd
       0.5290757 0.6291882 0.1261898 -0.059216816
000370 ee 02 7b be 25 b8 aa be 1d 45 a0 3e 0d a4 1e 3f
       -0.24512836 -0.33343616 0.3130273 0.6196907
000380 ac 63 9f 3e e9 06 8e 3f d8 4b 4f bf b9 3e 04 3f
       0.3113073 1.1095859 -0.80975103 0.5165821
000390 9f 25 3e 3f 33 63 d8 be d3 87 ef 3d 39 e1 d9 be
       0.74276155 -0.42263183 0.11695828 -0.42554644
0003a0 06 5c 25 be 2e b6 2f 3e 14 72 3a 3f 01 6c 35 be
       -0.16148385 0.1715934 0.7283032 -0.17716981
0003b0 8c f7 71 be 41 43 0c 3e 63 ae 1a 3f 46 08 b0 3d
       -0.23629588 0.1369753 0.60422343 0.08595328

sequential_3/dense_9/BiasAdd/ReadVariableOp f4 [24]
000000 c9 d4 64 3e 34 69 1c 3e a4 e1 81 3d bc d8 a6 ba
       0.22346796 0.15274507 0.06341866 -0.0012729387
000010 b0 f2 07 b9 03 93 e8 bb 43 4f 8e 3d f2 36 74 3e
       -0.00012965011 -0.0070976033 0.06948712 0.23849085
000020 ce b3 8a 3d 92 35 58 3e 1f 56 6f 3e b2 d3 31 3e
       0.06772576 0.21114185 0.23372696 0.17365912
000030 eb bc 9a 3e be 87 54 bd 4b 9b 91 3d 11 c0 89 3d
       0.30222258 -0.051887266 0.07109698 0.06726087
000040 00 33 cc 3d 1a 42 8f 3d 4a 4b 85 3e 45 61 78 3a
       0.09970665 0.0699503 0.26034003 0.00094749435
000050 95 f3 4a bd 77 70 f0 3d 4d 69 a7 3e 01 91 6a 3b
       -0.049548704 0.11740201 0.32697526 0.0035791995

sequential_3/dense_11/BiasAdd/ReadVariableOp f4 [6]
000000 13 81 3c be dd 67 e5 be 30 e9 c9 bd d1 d3 17 3f
       -0.18408613 -0.44805804 -0.0985893 0.5930758
000010 f8 1f 2a be 6a d4 85 3d
       -0.16613758 0.065346554

sequential_3/dense_10/BiasAdd/ReadVariableOp f4 [10]
000000 1c 46 53 3f bb a8 55 3f ac 21 6e 3f 6f b6 b3 3e
       0.82528853 0.8346059 0.9302013 0.35100123
000010 e5 d4 66 3e 61 82 52 3f 58 e7 08 bf 3a 17 4b 3e
       0.2254215 0.8223019 -0.53478 0.19833079
000020 62 97 41 3f 8d ad 72 be
       0.75621617 -0.23699017

sequential_3/dense_9/MatMul i1 [24, 800] scale=0.0058392477 zero_point=0
000000 f3 fb 0b 08 04 f6 0a 0a 07 0d 03 0a 0b 0d 0e fc
       -0.07591022 -0.029196238 0.06423172 0.04671398 0.02335699 -0.058392476 0.058392476 0.058392476 0.040874735 0.07591022 0.017517744 0.058392476 0.06423172 0.07591022 0.08174947 -0.02335699
000010 0a f8 fa 01 f3 fd 0b f9 02 fb fe 07 0b f3 f5 f2
       0.058392476 -0.04671398 -0.035035487 0.0058392477 -0.07591022 -0.017517744 0.06423172 -0.040874735 0.011678495 -0.029196238 -0.011678495 0.040874735 0.06423172 -0.07591022 -0.06423172 -0.08174947
000020 fc f2 f8 f5 fc f7 0c fb 08 0a 02 05 0e fb 0c fd
       -0.02335699 -0.08174947 -0.04671398 -0.06423172 -0.02335699 -0.05255323 0.070070975 -0.029196238 0.04671398 0.058392476 0.011678495 0.029196238 0.08174947 -0.029196238 0.070070975 -0.017517744
000030 09 f9 cd fa c7 0b d5 08 cb 06 ce 05 dd 09 cd 0d
       0.05255323 -0.040874735 -0.29780164 -0.035035487 -0.33283713 0.06423172 -0.25108767 0.04671398 -0.30948013 0.035035487 -0.2919624 0.029196238 -0.20437367 0.05255323 -0.29780164 0.07591022
000040 b4 00 f7 07 d4 08 e1 03 af fd 68 02 ea c9 e8 b0
       -0.44378284 0.0 -0.05255323 0.040874735 -0.2569269 0.04671398 -0.18101668 0.017517744 -0.47297907 -0.017517744 0.60728174 0.011678495 -0.12846345 -0.32115862 -0.14014195 -0.4671398
000050 4d 05 9e e7 54 17 bc ee 67 25 b6 fe 57 17 b4 00
       0.44962206 0.029196238 -0.57224625 -0.1459812 0.4904968 0.13430269 -0.39706886 -0.10510646 0.6014425 0.21605216 -0.43210432 -0.011678495 0.50801456 0.13430269 -0.44378284 0.0
000060 c0 d0 02 03 fb 04 e4 01 dd 08 db 0b ec 06 f4 04
       -0.37371185 -0.2802839 0.011678495 0.017517744 -0.029196238 0.02335699 -0.16349894 0.0058392477 -0.20437367 0.04671398 -0.21605216 0.06423172 -0.11678495 0.035035487 -0.070070975 0.02335699
000070 ed 0e e3 0a 0d 0d f2 07 08 03 d3 04 4e fc f5 d4
       -0.11094571 0.08174947 -0.16933818 0.058392476 0.07591022 0.07591022 -0.08174947 0.040874735 0.04671398 0.017517744 -0.26276615 0.02335699 0.45546132 -0.02335699 -0.06423172 -0.2569269
000080 0f bd 34 ff c9 ed 4b 18 d5 f7 46 10 d1 f5 4e 0a
       0.08758871 -0.3912296 0.30364087 -0.0058392477 -0.32115862 -0.11094571 0.43794358 0.14014195 -0.25108767 -0.05255323 0.40874735 0.09342796 -0.27444464 -0.06423172 0.45546132 0.058392476
000090 ca f2 d7 ee 15 15 f2 07 ef 09 e7 06 df 03 e4 04
       -0.3153194 -0.08174947 -0.23940916 -0.10510646 0.1226242 0.1226242 -0.08174947 0.040874735 -0.099267215 0.05255323 -0.1459812 0.035035487 -0.19269517 0.017517744 -0.16349894 0.02335699
0000a0 ec 08 ec 05 d0 0c eb 03 f7 06 ec 02 c5 01 67 04
       -0.11678495 0.04671398 -0.11678495 0.029196238 -0.2802839 0.070070975 -0.1226242 0.017517744 -0.05255323 0.035035487 -0.11678495 0.011678495 -0.34451562 0.0058392477 0.6014425 0.02335699
0000b0 f7 c7 16 cf 30 04 dc dd 33 17 d8 f9 45 16 d1 09
       -0.05255323 -0.33283713 0.12846345 -0.28612313 0.2802839 0.02335699 -0.21021292 -0.20437367 0.29780164 0.13430269 -0.2335699 -0.040874735 0.4029081 0.12846345 -0.27444464 0.05255323
0000c0 38 16 da fa c8 ea 22 08 fc 0b f1 03 e3 07 f6 04
       0.32699788 0.12846345 -0.22189142 -0.035035487 -0.32699788 -0.12846345 0.19853443 0.04671398 -0.02335699 0.06423172 -0.08758871 0.017517744 -0.16933818 0.040874735 -0.058392476 0.02335699
0000d0 f9 08 00 09 01 0c e3 09 f7 0d ef 04 f4 0c c5 fe
       -0.040874735 0.04671398 0.0 0.05255323 0.0058392477 0.070070975 -0.16933818 0.05255323 -0.05255323 0.07591022 -0.099267215 0.02335699 -0.070070975 0.070070975 -0.34451562 -0.011678495
0000e0 51 03 f7 c4 21 bb 2c 03 f7 f1 33 12 ef f0 32 15
       0.47297907 0.017517744 -0.05255323 -0.35035485 0.19269517 -0.4029081 0.2569269 0.017517744 -0.05255323 -0.08758871 0.29780164 0.10510646 -0.099267215 -0.09342796 0.2919624 0.1226242
0000f0 e6 f8 3c 12 e0 0a e1 db 13 f8 ef 07 ef 06 e8 03
       -0.15182044 -0.04671398 0.35035485 0.10510646 -0.18685593 0.058392476 -0.18101668 -0.21605216 0.11094571 -0.04671398 -0.099267215 0.040874735 -0.099267215 0.035035487 -0.14014195 0.017517744
